data.pth (torch, 16234 bytes, 6 tensors)

l1.weight f4 [8, 212]
-0.2324368 0.0076222434 -0.5822729 -0.06798601 -0.57702154 0.7501887 -0.32429153 0.37831637
0.35818937 -0.4839502 -0.10889461 -0.060807094 -0.11795502 0.51992106 -0.25191873 -0.13287869
-0.37086737 0.6523633 0.32143614 -0.31301177 0.591008 0.17548889 0.41315183 0.61788714
-0.33767164 -0.19656242 -0.40529802 -0.47020692 0.9522912 0.6115473 0.30128083 0.13918819
0.31781504 0.25968924 0.08286079 -0.08736721 -0.060467135 -0.21270087 -0.540895 -0.26607853
-0.85442656 -0.45494303 -0.54139996 0.15624654 0.6490664 0.4129943 0.7442371 -0.44890955
0.23906268 0.47018057 0.5572037 0.42343736 0.23865023 0.41680694 0.9949754 -0.290125
0.7861812 -0.86672866 -0.62982255 -0.53086823 0.23830959 -0.026552467 -0.20337291 -0.15231122
-0.818593 -0.77087843 0.94096637 0.2572701 -0.19131936 0.9277455 0.44630936 -0.22043988
0.6941247 -0.34306177 0.3966812 -0.8749183 -0.042585157 0.3617862 0.91914815 0.6170046
0.3092709 -0.008221178 0.06694471 0.22658202 0.7922378 0.35491198 0.33616838 0.9212848
0.9461478 -0.1517018 0.3292181 0.68060535 0.7887344 0.6501329 0.86257744 0.0021181083
-0.3289442 -0.75376433 0.4375897 0.5425488 -0.4755608 -0.0006798756 0.8692832 0.48484653
0.87927675 1.0036734 0.32573882 0.53030723 -0.5242385 0.69330937 0.06487423 0.7365188
-0.113677956 -0.24625126 -0.58044404 0.6379699 0.50387967 -0.28048888 0.052919842 0.67057514
0.9837836 -0.2518069 -0.3709319 0.71828926 0.32992664 -0.029600656 0.74849856 0.87848
0.010471439 -0.8623804 -0.19909121 -0.040859535 -0.13578638 -0.5435294 0.64975536 0.95099354
0.47508892 -0.0910476 -0.8975594 -0.20975024 -0.23360655 -0.48000273 -0.5582833 0.3734906
-0.11932172 0.3282445 0.33242115 0.6825 -1.1292206 -0.9309234 -0.33214903 0.25401172
-0.91061515 0.50684613 0.6189823 0.63779306 0.42997277 -0.15917437 0.7778568 -0.083285615
-0.37856844 0.24575867 0.2579452 -0.3355498 0.74783456 0.7253459 0.6531501 -0.19268744
-0.3291672 -0.54095775 -0.19256426 -0.22837731 -0.53811955 0.41446674 0.1498526 0.6422438
0.09018322 0.24951084 0.35316184 -0.4682632 -0.008216623 0.18280049 0.007452313 -0.039157778
0.5785016 1.1156523 0.70615226 -0.59247255 -0.1900526 0.6368285 0.24879736 0.05937399
0.29295388 0.27542877 0.4588491 0.5539162 0.7783467 -0.10519481 -0.20055173 0.4768221
0.4800852 0.6776603 -0.30971527 -0.30220494 0.9979852 -0.31838658 -0.16686301 -0.043152485
0.435862 -0.21757026 0.62536997 1.5495962 0.5681605 0.16459548 -0.00094007415 -0.40105397
0.114262305 0.1531575 0.06980804 0.9009765 0.99576896 -0.22896211 -0.2612656 -0.2882449
0.45743576 -0.29998043 1.0132123 0.48337078 0.6188134 0.5692263 0.51025903 0.6270326
0.65050566 0.37126327 -0.29036525 -0.31289825 0.5673487 0.4333389 0.6153846 0.6568337
-0.2612335 -0.2788282 0.6715177 -0.00668632 0.80538744 0.5446719 0.020110078 0.21160442
0.16087829 0.3445748 -0.280912 0.038200203 0.07212585 0.16176842 -0.23157643 0.2878121
00000000: ea03 6ebe 03c4 f93b d60f 15bf 403c 8bbd
00000010: afb7 13bf 5e0c 403f 8a09 a6be afb2 c13e
00000020: 9964 b73e 52c8 f7be 2304 dfbd dc10 79bd
00000030: 6792 f1bd 8c19 053f 7efb 80be 5a11 08be
00000040: 54e2 bdbe 4801 273f 4793 a43e 1443 a0be
00000050: 4d4c 173f 5cb3 333e a388 d33e da2d 1e3f
00000060: 4ce3 acbe a947 49be 3983 cfbe f6be f0be
00000070: 5bc9 733f 5d8e 1c3f 7b41 9a3e 5987 0e3e
00000080: a7b8 a23e fdf5 843e ebb2 a93d 94ed b2bd
00000090: 63ac 77bd 42ce 59be 1878 0abf 723b 88be
000000a0: b3bb 5abf 4bee e8be 3099 0abf 18ff 1f3e
000000b0: 3729 263f fd73 d33e 5386 3e3f 79d7 e5be
000000c0: d9cc 743e 82bb f03e e7a4 0e3f c8cc d83e
000000d0: ba60 743e b867 d53e b5b6 7e3f 448b 94be
000000e0: 2c43 493f eee1 5dbf 0d3c 21bf fbe6 07bf
000000f0: 6e07 743e 8f84 d9bc fd40 50be 79f7 1bbe
00000100: 508f 51bf 4a58 45bf 2ce3 703f e8b8 833e
00000110: 39e9 43be bb80 6d3f a982 e43e feba 61be
00000120: 28b2 313f cba5 afbe cc19 cb3e a5fa 5fbf
00000130: c66d 2ebd 0a3c b93e 4b4d 6b3f 03f4 1d3f
00000140: c158 9e3e 1fb2 06bc 4f1a 893d 1e05 683e
00000150: 19d0 4a3f 06b7 b53e 431e ac3e 52d9 6b3f
00000160: be36 723f b757 1bbe 468f a83e 273c 2e3f
00000170: 7fea 493f 1c6f 263f e0d1 5c3f f6cf 0a3b
00000180: 606b a8be b3f6 40bf c20b e03e 7ae4 0a3f
00000190: b57c f3be ae39 32ba 5889 5e3f ce3d f83e
000001a0: 4818 613f 5f78 803f 3dc7 a63e 37c2 073f
000001b0: 7f34 06bf b97c 313f c8dc 843d 7f8c 3c3f
000001c0: fdcf e8bd 4a29 7cbe fb97 14bf ff51 233f
000001d0: 42fe 003f 3d9c 8fbe 7ac2 583d d0aa 2b3f
000001e0: 3ed9 7b3f d6ec 80be c9ea bdbe cee1 373f
000001f0: 25ec a83e 137d f2bc 9a9d 3f3f 11e4 603f
00000200: 6690 2b3c f6c4 5cbf 91de 4bbe 545c 27bd
00000210: 960b 0bbe be24 0bbf 5e56 263f 5074 733f
00000220: db3e f33e 2a77 babd 74c6 65bf c4c8 56be
00000230: 8e36 6fbe ebc2 f5be a8eb 0ebf 293a bf3e
00000240: f25e f4bd aa0f a83e 1b33 aa3e 52b8 2e3f
00000250: 4d8a 90bf ff50 6ebf 700f aabe d30d 823e
00000260: 131e 69bf abc0 013f a075 1e3f 6846 233f
00000270: 6425 dc3e 9bfe 22be a021 473f a691 aabd
00000280: b9d3 c1be 29a8 7b3e 6511 843e 2fcd abbe
00000290: 1672 3f3f 45b0 393f d834 273f db4f 45be
000002a0: 9a88 a8be 357c 0abf 912f 45be bedb 69be
000002b0: 34c2 09bf fc34 d43e f672 193e 176a 243f
000002c0: fbb1 b83d c57f 7f3e a1d1 b43e 32c0 efbe
000002d0: 049f 06bc 0d30 3b3e 8832 f43b e863 20bd
000002e0: ae18 143f b2cd 8e3f 65c6 343f 48ac 17bf
000002f0: 269d 42be 3107 233f bcc4 7e3e 2432 733d
00000300: 0dfe 953e 0005 8d3e 45ee ea3e 74cd 0d3f
00000310: bb41 473f 6070 d7bd 6f5d 4dbe 0722 f43e
00000320: bacd f53e 257b 2d3f 0093 9ebe 9bba 9abe
00000330: f57b 7f3f 9103 a3be 23de 2abe a9c0 30bd
00000340: 4e29 df3e bdca 5ebe 3f18 203f 2b59 c63f
00000350: f772 113f b88b 283e 4f6f 76ba f256 cdbe
00000360: 5b02 ea3d 52d5 1c3e 85f7 8e3d 65a6 663f
00000370: b7ea 7e3f 0b75 6abe 9bc4 85be d694 93be
00000380: 0535 ea3e 0997 99be f1b0 813f 607c f73e
00000390: 8e6a 1e3f d1b8 113f 56a0 023f 3585 203f
000003a0: 8a87 263f 3816 be3e c1aa 94be 3334 a0be
000003b0: c43d 113f 99de dd3e d889 1d3f 4126 283f
000003c0: 66c0 85be 92c2 8ebe 96e8 2b3f eb18 dbbb
000003d0: df2d 4e3f 9e6f 0b3f e4bd a43c d4ae 583e
000003e0: 47bd 243e 1c6c b03e b3d3 8fbe d177 1c3d
000003f0: b8b6 933d 9fa6 253e 5f22 6dbe 1c5c 933e

l1.bias f4 [8]
1.7292504 1.4820454 1.5481766 1.601318 1.3170308 1.1805408 1.5011734 1.5431371
00000000: 1458 dd3f aab3 bd3f a72a c63f fdf7 cc3f
00000010: 7794 a83f f61b 973f 7326 c03f 8485 c53f

l2.weight f4 [8, 8]
-0.8012677 1.4388937 0.36347434 0.4778983 -1.9639391 0.2437024 1.9743919 1.1384732
1.9854754 -1.9677705 2.5986366 1.4216703 -1.3489112 -0.1055177 0.3092927 1.7573397
-0.8263644 0.9979268 1.2911739 2.7435656 0.8430882 -1.1288887 -0.70231754 -0.6480479
-2.1168952 0.80074733 0.9960368 1.1116848 -0.30150247 0.8052932 -0.23803133 0.95180714
1.9133734 1.5283448 1.8628694 0.6239411 0.5843544 2.275052 -0.9741234 -1.2349159
1.387706 1.7649046 -1.5909499 1.5899127 1.409076 -1.2281458 2.5471754 1.6147472
-0.2757 -0.16041762 -0.2616914 0.041346677 -0.066568084 -0.31702825 -0.36941206 0.2865564
-0.44987905 1.6898792 1.6818005 -1.1468792 2.0682006 -1.3868397 0.24286099 2.0349822
00000000: e11f 4dbf ab2d b83f 4f19 ba3e 16af f43e
00000010: 5b62 fbbf 1f8d 793e e0b8 fc3f 7db9 913f
00000020: 0f24 fe3f e7df fbbf 1050 2640 4bf9 b53f
00000030: 1fa9 acbf aa19 d8bd 9d5b 9e3e 82f0 e03f
00000040: 9e8c 53bf 2178 7f3f 3045 a53f 9496 2f40
00000050: a1d4 573f 6d7f 90bf 15cb 33bf 78e6 25bf
00000060: 367b 07c0 c7fd 4c3f 45fc 7e3f b04b 8e3f
00000070: 885e 9abe b227 4e3f 7cbe 73be a2a9 733f
00000080: 6be9 f43f cda0 c33f 8172 ee3f 9bba 1f3f
00000090: 4098 153f 749a 1140 2760 79bf b911 9ebf
000000a0: 5aa0 b13f 65e8 e13f 3fa4 cbbf 4282 cb3f
000000b0: 9a5c b43f e233 9dbf ec04 2340 09b0 ce3f
000000c0: 8d28 8dbe 8444 24be 6afc 85be 225b 293d
000000d0: d954 88bd 8751 a2be 9423 bdbe 85b7 923e
000000e0: 8c56 e6be f64d d83f 3d45 d73f f0cc 92bf
000000f0: 665d 0440 f783 b1bf 8db0 783e 263d 0240

l2.bias f4 [8]
0.2394912 0.95998484 0.23553143 0.01596578 0.6587299 0.9742773 -0.26626852 0.105928354
00000000: 2e3d 753e 91c1 753f 272f 713e abca 823c
00000010: 86a2 283f 3d6a 793f 5954 88be f7f0 d83d

l3.weight f4 [66, 8]
0.35526803 -0.052998476 -2.4429061 0.33679333 -1.8358684 0.4440355 -0.046754777 -0.061411336
-0.05292257 -0.9984628 0.31390887 0.05294935 -0.2978395 0.079609774 0.25874454 -0.8337007
0.22709718 -0.21172059 0.022656959 -0.3732328 -1.0178281 0.19632673 0.09699993 -0.2493857
-0.008872182 -0.6126445 -0.23750354 -0.17256911 -1.4449021 0.110189445 -0.25455025 0.62802655
-0.5524604 0.42924845 -0.3946083 -1.8220859 -0.3628377 0.15827234 -0.12608288 -1.0254034
0.058398943 0.09597446 -0.15120474 0.30573437 -0.94517154 -1.234682 -0.30319333 0.26900452
-1.8471947 -0.7968583 0.8303445 -0.016665563 -0.18192023 0.0023944897 -0.112179026 -2.047782
-2.0035443 0.22851685 0.36398646 -0.053029098 0.16341753 -1.7289698 0.058034092 -1.8218117
-1.7693183 0.20597021 0.13317543 -0.5619254 -0.24175768 -0.12866554 -0.35282844 -0.6182541
0.39258644 -1.6494399 0.40157607 0.36910072 -1.3309058 0.20143911 0.061631564 -0.39709795
0.29208788 -1.8775513 -0.5968194 0.14166145 -2.629902 0.52882344 0.16594097 0.24883537
-1.9814721 -0.903383 0.39834124 -0.13001734 -0.062223952 -1.7214535 -0.06608994 0.5281534
0.7211108 -1.0956755 -2.0896895 0.20757927 -2.8936663 0.48122403 0.26258537 0.09758152
-2.0550368 0.60120237 -1.9128816 -1.9584696 0.5047776 -0.89650816 0.023127317 -2.4977934
-0.21601152 -1.5432158 -0.88139445 -1.5513072 0.05052537 0.65510774 0.22424856 -1.8286488
0.27252924 0.15113778 -0.09026197 0.2744071 -2.5177898 -0.18203795 0.18362212 0.086251974
-0.35748535 0.6120966 -2.0999904 -0.084093995 -0.1792897 -1.951708 0.19940683 -0.40643662
0.30153656 0.37648338 -1.7680528 -1.9578116 -2.4293642 0.58555055 0.005171597 -0.45946285
-2.207803 0.51741236 0.27201375 -2.0140226 0.22688644 -1.4866711 0.14205924 -1.4174765
-1.3514776 -1.5255193 0.18266028 -1.4194847 0.34122294 -0.68163896 0.3266028 0.27747852
-0.30266634 -1.3637567 -0.22928458 -0.11549916 0.4598422 -1.450098 -0.1331676 -0.5330748
0.4449245 -0.27167043 -0.035656944 0.2549438 -2.2375093 0.2672031 -0.073595636 -0.52714294
-1.5838848 0.085036926 -0.5581602 -1.2320799 0.4345577 -0.56622964 0.27151552 -1.1874741
-0.22420476 0.3295516 0.06605671 -2.585225 -0.86286765 0.41958815 -0.10978314 -2.7061396
-2.2585046 0.8473408 -2.3699102 -1.6783915 -0.041480657 0.28645676 -0.16727448 -2.4810143
0.29893446 0.39336887 -0.096396305 -0.5313013 -1.635252 -0.0046730004 -0.03262743 -0.569811
-2.7230637 -1.412514 -0.93223834 -1.4165027 -0.058071513 0.59226817 -0.064019024 -0.003130511
-0.44856685 0.45271325 0.26028892 -0.19539493 -0.38725793 -1.9589436 -0.30358824 -0.51772046
-1.7090733 0.07203104 0.030500678 -1.2773132 0.21074209 -1.9099653 0.14225096 0.043566618
-1.5212859 -1.5268605 -1.8121759 -1.5659053 0.689894 0.10085567 -0.28873187 -1.6667624
0.4218341 -1.2958108 -1.9844528 -1.465076 -1.3192 0.7389156 -0.02170071 0.27062058
-2.833241 -0.026638387 0.09309321 0.17540681 -0.815305 -0.069919646 -0.37312233 0.35574377
00000000: b1e5 b53e ee14 59bd 9358 1cc0 2d70 ac3e
00000010: bcfd eabf 9f58 e33e f081 3fbd 748a 7bbd
00000020: 56c5 58bd 429b 7fbf aab8 a03e 6be1 583d
00000030: 6b7e 98be 730a a33d 2a7a 843e 696d 55bf
00000040: 2a8c 683e 48cd 58be 169b b93c 5f18 bfbe
00000050: 3148 82bf e009 493e e6a7 c63d f75e 7fbe
00000060: a15c 11bc 45d6 1cbf 2134 73be f5b5 30be
00000070: 8df2 b8bf 01ab e13d 6954 82be 59c6 203f
00000080: 0b6e 0dbf 74c6 db3e 190a cabe 1c3a e9bf
00000090: ddc5 b9be 2512 223e df1b 01be 6b40 83bf
000000a0: bb33 6f3d 428e c43d 6ad5 1abe 3789 9c3e
000000b0: c3f6 71bf 0f0a 9ebf 283c 9bbe f6ba 893e
000000c0: e070 ecbf e8fe 4bbf 7591 543f 3886 88bc
000000d0: 4c49 3abe dfec 1c3b 1ebe e5bd dc0e 03c0
000000e0: 123a 00c0 5200 6a3e 6f5c ba3e 0a35 59bd
000000f0: ed56 273e e24e ddbf 28b5 6d3d 2031 e9bf
00000100: 0679 e2bf dbe9 523e 245f 083e 58da 0fbf
00000110: 538f 77be e6c0 03be eea5 b4be e745 1ebf
00000120: 1701 c93e d920 d3bf 619b cd3e c5fa bc3e
00000130: 1f5b aabf 0e46 4e3e 6171 7c3d 6c50 cbbe
00000140: 8b8c 953e 9a53 f0bf 28c9 18bf b30f 113e
00000150: 5050 28c0 f960 073f 6eec 293e b3ce 7e3e
00000160: e1a0 fdbf 1c44 67bf 62f3 cb3e 4423 05be
00000170: 8bde 7ebd 9758 dcbf 2a5a 87bd 1035 073f
00000180: b89a 383f 183f 8cbf 79bd 05c0 a98f 543e
00000190: d431 39c0 ff62 f63e 9771 863e d2d8 c73d
000001a0: b985 03c0 66e8 193f 4ed9 f4bf 22af fabf
000001b0: 1b39 013f 8f81 65bf 8075 bd3c d9db 1fc0
000001c0: 2032 5dbe 1888 c5bf 11a3 61bf 3c91 c6bf
000001d0: b1f3 4e3d 24b5 273f 6aa1 653e 2a11 eabf
000001e0: f488 8b3e ddc3 1a3e 45db b8bd 167f 8c3e
000001f0: 7823 21c0 2868 3abe 7007 3c3e e0a4 b03d
00000200: 5208 b7be 5db2 1c3f 3e66 06c0 7939 acbd
00000210: b897 37be 91d1 f9bf 4e31 4c3e 7618 d0be
00000220: 0063 9a3e 6ec2 c03e 8e4f e2bf 9299 fabf
00000230: b47a 1bc0 a4e6 153f 8076 a93b b73e ebbe
00000240: a54c 0dc0 2375 043f 6345 8b3e bfe5 00c0
00000250: eb54 683e 3d4b bebf fa77 113e df6f b5bf
00000260: 38fd acbf 3744 c3bf 4c0b 3b3e adb1 b5bf
00000270: c6b4 ae3e e47f 2ebf 7b38 a73e aa11 8e3e
00000280: 15f7 9abe 948f aebf 94c9 6abe d38a ecbd
00000290: 7070 eb3e d09c b9bf 165d 08be 9777 08bf
000002a0: 25cd e33e 6318 8bbe 040d 12bd fe87 823e
000002b0: 5a33 0fc0 d8ce 883e 4fb9 96bd d7f2 06bf
000002c0: bdbc cabf d727 ae3d 96e3 0ebf cbb4 9dbf
000002d0: 597e de3e 6df4 10bf 1504 8b3e 27ff 97bf
000002e0: ef95 65be fdba a83e be48 873d 5474 25c0
000002f0: e5e4 5cbf 42d4 d63e fcd5 e0bd 6431 2dc0
00000300: 578b 10c0 54eb 583f 9cac 17c0 88d5 d6bf
00000310: 9fe7 29bd 76aa 923e 004a 2bbe f0c8 1ec0
00000320: f00d 993e a567 c93e 6d6b c5bd 5d03 08bf
00000330: f04f d1bf f81f 99bb 57a4 05bd 22df 11bf
00000340: ad46 2ec0 42cd b4bf 2ca7 6ebf f64f b5bf
00000350: 65dc 6dbd e39e 173f 681c 83bd 4229 4dbb
00000360: 8eaa e5be 08ca e73e 9744 853e 9c15 48be
00000370: ac46 c6be aabe fabf eb6f 9bbe 5489 04bf
00000380: eac2 dabf 0385 933d 8fdc f93c 007f a3bf
00000390: c6cc 573e be79 f4bf 3caa 113e e972 323d
000003a0: 7fb9 c2bf 2a70 c3bf 61f5 e7bf 966f c8bf
000003b0: e59c 303f 6b8d ce3d aad4 93be 7858 d5bf
000003c0: a4fa d73e 21dd a5bf 8d02 febf 9c87 bbbf
000003d0: 8cdb a8bf 9329 3d3f b0c5 b1bc c88e 8a3e
000003e0: d253 35c0 bf38 dabc a7a7 be3d d89d 333e
000003f0: d4b7 50bf 0832 8fbd e409 bfbe 0c24 b63e

l3.bias f4 [66]
0.5579562 0.22518708 -0.29971844 0.17152773 0.16762306 -0.120163545 0.5052935 -0.20096144
-0.55998623 0.010432965 0.021814398 -0.13360767 -0.44969288 -0.32542804 0.3617579 -0.6396783
0.428569 -0.30430058 0.12848422 0.20628992 0.84887385 -0.66969746 -0.15960354 -0.41731605
-0.05149875 -0.87562895 0.36391595 -0.3349415 -0.42817962 0.5501948 0.14703202 -0.25049976
-0.04038248 -0.005818782 0.22312777 0.008088605 0.2463657 -0.22241716 -0.25077933 -0.4851938
0.23828006 -0.07565276 -0.05068796 -0.4866465 -0.013373559 0.28663805 -0.19433522 0.31950113
-0.06805929 0.11950123 -0.35764125 -0.2251015 0.16757965 -0.38748348 -0.38866103 0.19847392
-0.23643233 -0.09976979 -0.14789993 0.09190664 -0.39448586 0.17563048 -0.117847934 0.55305535
0.2820911 0.18109402
00000000: 38d6 0e3f 7197 663e b274 99be f7a4 2f3e
00000010: 61a5 2b3e 4e18 f6bd ea5a 013f d6c8 4dbe
00000020: 425b 0fbf 07ef 2a3c 1cb4 b23c 73d0 08be
00000030: 253e e6be 819e a6be 5538 b93e f5c1 23bf
00000040: 656d db3e 49cd 9bbe 5e91 033e aa3d 533e
00000050: cc4f 593f 4b71 2bbf 1c6f 23be 73aa d5be
00000060: 5af0 52bd 3829 60bf 3153 ba3e 747d abbe
00000070: 5c3a dbbe 91d9 0c3f 908f 163e 8141 80be
00000080: 1968 25bd 7bab bebb 9b7b 643e 1186 043c
00000090: 4a47 7c3e 53c1 63be 2666 80be 526b f8be
000000a0: b0ff 733e d6ef 9abd 2e9e 4fbd bb29 f9be
000000b0: c61c 5bbc 39c2 923e d0ff 46be a795 a33e
000000c0: ab62 8bbd 10bd f43d c11c b7be 0281 66be
000000d0: 009a 2b3e 3c64 c6be 94fe c6be bf3c 4b3e
000000e0: 511b 72be 1b54 ccbd 1473 17be 8c39 bc3d
000000f0: 0dfa c9be 7ad8 333e 425a f1bd 0995 0d3f
00000100: 3f6e 903e b670 393e
